ksmt-neurosmt/src/main/resources/conv.onnx (onnx, 18851 bytes, 5 tensors)

lin.weight f4 [32, 32]
000000 a2 b9 38 3e c3 c2 0e 3e ee e0 86 bd ba 5e 1e bd
       0.18039563 0.13941483 -0.06585871 -0.038664557
000010 ac bd 56 bc 59 10 a9 bd 22 a7 22 3e 22 7c 42 3e
       -0.013106745 -0.08255071 0.15884069 0.18992665
000020 9e b7 0d be e7 af fa 3d 30 98 0a be 2b 07 e1 bd
       -0.13839576 0.12240582 -0.13534617 -0.10987695
000030 ca e8 30 be 10 1d 9b 3d 63 95 d7 3c f5 19 18 be
       -0.17276302 0.075739026 0.02631635 -0.14853652
000040 c3 e4 17 3e ee 2a 00 bd 17 0c 6a 3e 9b 39 3d 3e
       0.1483336 -0.03129094 0.22856174 0.18479006
000050 d4 dc 0e bd e6 48 35 3e a3 8c 02 be 99 2b 54 be
       -0.034878567 0.1770359 -0.12748961 -0.20719756
000060 49 4e 9c 3d d5 52 83 bd 02 24 c1 bc 57 b2 e8 bd
       0.07632119 -0.06412283 -0.02357674 -0.113621406
000070 91 0f 9c bd ef 20 0f 3e 27 ab 69 be 7d f6 f0 3d
       -0.076201566 0.13977407 -0.22819196 0.11765764
000080 58 1f 10 be 9a 33 87 3d 48 c8 23 bd 09 61 49 3c
       -0.14074457 0.06601639 -0.039985925 0.012291201
000090 f7 b7 84 3d 59 d2 3e 3d 63 73 57 bc 47 80 86 3e
       0.06480401 0.046587322 -0.013150069 0.26269743
0000a0 85 f1 08 3c 4f ca 8c 3d d7 ba 45 be e7 ed 18 bd
       0.008358364 0.06874525 -0.19309555 -0.037336256
0000b0 f9 72 3b 3e 66 4a 5d be 93 e0 07 3e 90 4f 95 bc
       0.18305577 -0.21610412 0.13269262 -0.018226415
0000c0 d8 d0 13 3e 08 fc 11 3e 9c 57 ec 3d 4e 31 51 be
       0.14435136 0.14256299 0.11540148 -0.20428964
0000d0 2b fd f0 3d f3 68 25 be e1 78 11 be ec 84 d7 3c
       0.11767038 -0.16153316 -0.14206268 0.0263085
0000e0 ce 36 1a 3d 39 fa 5d 3d f2 7c 56 3e f5 41 32 bd
       0.037649922 0.05419371 0.209461 -0.043519933
0000f0 46 5e 28 be 8e 6a 8c be 15 86 a5 bd 60 bf 96 be
       -0.16442212 -0.27425045 -0.08082215 -0.29442883
000100 09 27 8a be 7e 14 04 3e 53 93 b1 3b 49 e2 24 3d
       -0.26982906 0.12898442 0.0054191737 0.040254865
000110 99 27 c1 3d 20 7c 45 be 1b 96 db 3d c7 3c 71 3e
       0.09431381 -0.19285631 0.1072199 0.23558341
000120 5c 6d fe 3c 5c 65 1d 3e 0f 85 cc 3d 00 86 73 3e
       0.031058006 0.15370697 0.099863164 0.23781586
000130 44 f0 25 be b3 d7 67 be a3 f1 df bd 15 0a d6 bc
       -0.16204935 -0.22640876 -0.109347604 -0.026127854
000140 0e b8 ba 3d af e4 16 be ee 8b 71 3c 9a 4f 0c 3e
       0.09117137 -0.14735673 0.0147428345 0.1370224
000150 ea b8 6e 3e e6 37 9c 3d 4c aa 38 be 3c c9 ca bd
       0.23312727 0.07627849 -0.18033713 -0.09901664
000160 0d 19 f6 3d ae 25 59 be 48 ed 55 be d4 48 68 3d
       0.12016497 -0.2120578 -0.20891297 0.05671008
000170 93 af 41 be c0 6a f3 3c 46 46 17 be 4f 27 5b bd
       -0.18914632 0.029713988 -0.14772901 -0.053504284
000180 b5 6d 49 be db 44 51 be f4 fe c3 bb 3d c3 2c 3d
       -0.19670756 -0.20436423 -0.0059813205 0.04217838
000190 a1 ff 77 be ba 10 42 3e 2a 58 63 3e 75 39 a0 3d
       -0.24218608 0.18951693 0.222016 0.07823459
0001a0 f5 8a e9 3d 57 76 77 be 26 23 97 3d e7 68 1a bd
       0.11403457 -0.24166237 0.07379751 -0.0376977
0001b0 13 72 30 be c8 63 f1 3d 9a 37 47 3e 27 2d 20 3e
       -0.17231016 0.1178661 0.19454804 0.15642224
0001c0 01 3e 2b be 6e f5 66 3d 64 be d0 bd 7b f8 2d be
       -0.16722871 0.056386404 -0.10192564 -0.16989319
0001d0 fe 92 7b be ae 29 65 3d 67 cd 42 3c a6 0d c7 3d
       -0.24567792 0.055947952 0.011889792 0.097194
0001e0 46 f8 ec bd 57 2f 33 3e 65 22 fe bd 1b 9d ec 3d
       -0.11570792 0.17498527 -0.12408904 0.11553403
0001f0 42 38 7d bd f4 03 be bd 04 f9 24 3e 8e b0 8a 3d
       -0.06182123 -0.09278098 0.16110617 0.067719564
000200 37 82 d7 3c 1e d1 8d bd 72 69 4b 3e 19 4c db bc
       0.026307208 -0.069246516 0.19864443 -0.026769685
000210 48 4a 35 bd 9b af 94 bd b1 76 0a 3d 3e 6c 03 be
       -0.044260293 -0.072600566 0.0338046 -0.1283426
000220 22 46 08 be 06 d4 e9 bc 95 f0 45 bd f0 8a 42 be
       -0.13308004 -0.028543483 -0.04832514 -0.18998313
000230 fe 49 05 3e 1b 3f d4 bc 3c 10 4b 3e a9 5d 0a 3e
       0.13016507 -0.025908997 0.19830412 0.13512291
000240 95 10 0b be 5b 07 91 bd 8d 7f 17 be 37 d0 db bd
       -0.13580544 -0.07081481 -0.1479475 -0.10733073
000250 0e 48 03 3e e4 97 84 3e 2c 09 8d 3a 3f d1 11 be
       0.12820455 0.25897133 0.001076018 -0.14239977
000260 a9 2d 1b 3d 08 f1 46 3e c3 4a df bd df 70 8f 3e
       0.03788534 0.19427884 -0.109029315 0.280158
000270 06 34 e5 3d b6 eb 79 3e 0d 55 b9 bd 3a 5c 0b 3e
       0.11191563 0.24406323 -0.09049425 0.136094
000280 be bb 05 be d7 ea 2d 3e d3 c3 25 be 6d f7 83 be
       -0.13059899 0.16984116 -0.16187982 -0.25774708
000290 b1 a2 20 bc b0 bb 1b 3e 01 c1 8e bd 16 40 79 3e
       -0.009804414 0.15208316 -0.06970406 0.24340853
0002a0 44 9c f0 bd 05 38 50 3e 67 29 88 be 51 1d 48 3d
       -0.11748555 0.2033387 -0.26594087 0.048856083
0002b0 ad b7 53 be 2f f6 89 be 41 a6 05 3e 25 9d bf bd
       -0.20675536 -0.26945636 0.13051702 -0.09356145
0002c0 64 31 63 3c cf 35 a0 3d 23 34 63 be 1a 9f 35 be
       0.013866756 0.07822763 -0.22187857 -0.17736474
0002d0 ed 54 d0 3d d2 8f 93 bd 78 0a 1e bd 76 db 76 be
       0.10172448 -0.07205166 -0.038584203 -0.24107155
0002e0 50 53 e9 bd 47 fa a9 3b 51 ca 19 bc ed d3 ea bd
       -0.11392844 0.005187306 -0.009386615 -0.11466203
0002f0 32 33 1d be f7 d2 2b be d7 85 89 3d 92 91 04 be
       -0.1535156 -0.16779695 0.06714981 -0.12946156
000300 3e 0e 89 bd 9f 7a 59 bd 08 3c bd bd 66 bb 35 3d
       -0.066921696 -0.053095456 -0.09239966 0.04436817
000310 4f 3c c4 3d a9 90 a4 3d f0 ad 10 be d3 9e ff 3d
       0.095818155 0.08035404 -0.14128852 0.12481465
000320 51 00 8f 3e b5 12 47 3d 56 a7 58 3d 32 a6 b1 3d
       0.2792993 0.048601825 0.05289396 0.08674277
000330 d8 ea d8 bb d2 c2 6b be cc 7d 08 be ac 09 30 be
       -0.0066197924 -0.23023537 -0.13329238 -0.1719119
000340 3b 68 d6 bd 6f e0 15 3d de 65 20 be 5c 96 72 3e
       -0.10469099 0.03659099 -0.15663859 0.2369017
000350 e9 60 54 3e 9c f9 f1 3d ed a4 98 3c e7 59 25 be
       0.20740093 0.11815187 0.01863333 -0.16147576
000360 36 99 fb bd 9e 9f c3 bb 80 0e 09 bd ec 18 85 3e
       -0.12285082 -0.0059699556 -0.033461094 0.25995576
000370 6d b0 30 be 69 e3 73 be 2b 38 1e 3e b2 20 68 3d
       -0.17254801 -0.23817219 0.15451114 0.056671806
000380 c7 78 6f 3d 3f 10 01 3c 8c 78 a3 bc ae be 14 3e
       0.05846479 0.0078774085 -0.019954942 0.14525864
000390 2e 15 49 3e 74 75 cd bc 62 9a 57 bd cd 17 cf bc
       0.19636986 -0.02508042 -0.052637465 -0.025279904
0003a0 af b0 1a bd b1 4c cc bc 8d 03 c8 3d 01 61 60 3e
       -0.037766155 -0.024938913 0.09766302 0.21912004
0003b0 60 59 1b 3d 32 c1 ff bd 47 9c fd bd 37 d9 e8 bd
       0.03792703 -0.12488021 -0.12383323 -0.113695554
0003c0 91 86 7c 3d bd ee a5 3c a6 b4 02 3e 79 74 35 3e
       0.06165177 0.02025544 0.12764224 0.17720212
0003d0 71 44 f2 bc 80 94 e8 bd fb be 75 3e 1f df 58 bd
       -0.029573651 -0.11356449 0.23998635 -0.05294716
0003e0 77 ac db 3c 6f 57 46 3d 14 5d 75 3d ba 79 82 3d
       0.026815636 0.048423227 0.05990322 0.06370874
0003f0 88 04 71 3d 0d 56 96 3d 8e 99 7a 3d ef 34 16 3d
       0.058842212 0.07340632 0.061181597 0.036671575

lin.bias f4 [32]
000000 bb ad ac 3b 4b b0 ad bd 82 ce 65 bd ac 74 35 bc
       0.0052697337 -0.08480891 -0.056105144 -0.01107518
000010 1b fe 0c 3e 4b fc 43 3e d3 1d 62 3e be 4f 28 3e
       0.13768809 0.19139211 0.2208169 0.16436669
000020 5c 8b ae 3c 69 d9 36 3e 93 1d c1 bb 89 c8 0b bb
       0.021306686 0.17856373 -0.005893418 -0.0021329245
000030 fa fd 44 3d a1 aa 2c 3e 1d 20 e9 3b f1 4a a6 bd
       0.048093773 0.16861965 0.007114424 -0.08119763
000040 b3 1a ab bd 03 88 b7 3d 20 dd c2 bc 48 d7 fc 3d
       -0.08354702 0.08961489 -0.023787081 0.12345749
000050 55 ba 54 3e 54 2e 2e be 80 46 41 3e 44 99 8a bc
       0.20774205 -0.1700986 0.1887455 -0.016918786
000060 af e9 99 3d af 6e 90 bd e0 b5 39 bd dc 6e 52 3e
       0.07515275 -0.07052361 -0.045339465 0.20550102
000070 ca 92 7c 3d 28 00 98 bd 6d ac 70 3e d1 e9 8b 39
       0.061663426 -0.07421905 0.23503275 0.00026686353

lin_l.weight f4 [32, 32]
000000 e2 1f c6 3d 74 31 7d be bd 52 f7 bd e9 2e 8e 3e
       0.0967405 -0.24725896 -0.12076328 0.27770165
000010 55 66 b2 bd 07 50 5b bd 64 a8 56 bd 96 75 2c 3e
       -0.087109245 -0.053543117 -0.052406684 0.1684173
000020 6c 8a 74 be 0a 67 5b 3e aa 79 ed bd 7d a8 ee 3d
       -0.23880929 0.21426025 -0.11595471 0.1165323
000030 81 e4 2e 3e 6e c1 52 3e 36 11 b4 3d 22 55 34 be
       0.17079355 0.205816 0.08792345 -0.176106
000040 66 ba 26 be 1f 2c 36 3e b8 1c 5f be 77 21 f4 3c
       -0.16282043 0.17790268 -0.21788299 0.029801114
000050 8d 47 ed bd 06 68 d5 3b 9a ed 02 3e 32 46 1b be
       -0.11585913 0.0065126447 0.1278595 -0.15163496
000060 1e 5a 4c 3e f9 c7 3a bd 8b ab 7f 3d 40 aa b1 3d
       0.19956252 -0.045600865 0.062419455 0.08675051
000070 b2 a9 d7 3c 84 6d 36 be b5 15 bc bd 16 24 42 bd
       0.026326034 -0.17815214 -0.09183828 -0.047397695
000080 a4 6c 94 be b4 4c 72 3e 82 d6 f1 3e 34 bc b2 3e
       -0.28989136 0.23662072 0.4723397 0.34909213
000090 87 a1 b0 be 4d 56 a7 bd 37 d7 06 3e 5a 21 33 be
       -0.34498236 -0.081707574 0.13168035 -0.17493191
0000a0 1b b8 12 3e 61 ca 20 bd b9 e7 e5 3d 6f 65 5e be
       0.14328043 -0.039255504 0.11225838 -0.21718381
0000b0 d4 aa 19 be dd 05 1a be 83 54 d1 3b 8c e7 b8 bc
       -0.15006572 -0.15041299 0.0063882484 -0.022571348
0000c0 07 71 66 be 7b e8 fc 3b bd 8d 9e 3d 9b c1 4f be
       -0.22504054 0.0077181435 0.07741878 -0.20288698
0000d0 b2 d0 6b be e5 c9 24 3e bd 6b a5 3e 2f e3 7b 3e
       -0.2302883 0.16092642 0.3230876 0.24598382
0000e0 2f ed 8d 3e 29 ed d8 3b ce f7 9f 3c cf 76 12 be
       0.2772002 0.0066200686 0.019527342 -0.14303134
0000f0 60 db dc bd 3e a2 84 3e c2 9e 62 bd ab 18 b7 3c
       -0.1078403 0.2590503 -0.055327184 0.02235063
000100 06 89 91 3d 61 5d 4c be 13 54 1d 3d 0d fb 17 3c
       0.07106213 -0.19957496 0.038410258 0.009276164
000110 ed c5 9b bd 28 c8 a9 3d 75 96 4c 3e f6 6b d1 3d
       -0.07606111 0.0829013 0.1997927 0.1022567
000120 6c 81 16 3d d2 2d df 3d a0 3f 81 3e 76 25 73 3e
       0.03674452 0.108974114 0.25243855 0.23744759
000130 51 bf 92 bd 33 b0 f1 bc 82 f6 1d 3e 50 7f b5 bd
       -0.07165397 -0.029502964 0.15426067 -0.088621736
000140 24 4c 38 3e 11 38 08 be 01 b4 de bd 61 6c 69 be
       0.17997795 -0.13302638 -0.10874177 -0.2279525
000150 6e 78 5b 3e a6 dc a9 3d c9 df a6 bd 54 86 b2 3d
       0.21432659 0.082940385 -0.081481524 0.08717027
000160 b7 ff 13 bd 5d 99 e3 bd 97 6e 93 3d 40 2a 53 3e
       -0.03613254 -0.11113236 0.07198828 0.20621586
000170 87 0c 80 3e 8c ff f5 bd d3 86 4a be ce c7 11 be
       0.25009558 -0.12011632 -0.19777994 -0.14236376
000180 2f 3b 94 bd d4 24 5b be 70 75 9e 3d 1c ea 9d 3d
       -0.07237851 -0.21400768 0.07737243 0.077106684
000190 1c da 71 3c 65 56 12 ba 85 b8 4e 3e 5e 06 d6 3d
       0.014761474 -0.0005582332 0.20187576 0.10450433
0001a0 83 d0 ec bd 9a a6 0c 3b ce 28 0e 3e 88 89 2f bd
       -0.11563208 0.0021461607 0.13882753 -0.04285577
0001b0 2e d2 91 3c 9d 1c 32 3d e3 86 ff 3d 99 4d 0f 3e
       0.017800417 0.04348432 0.124768995 0.13994445
0001c0 a8 d1 87 3d 1b eb 80 bd 7f 44 8b 3d c9 57 9a bc
       0.06631786 -0.06294843 0.06800174 -0.018840687
0001d0 ed 6e 36 3e d5 8e 01 3e 25 25 1c 3e b3 6a 03 be
       0.17815752 0.12652142 0.15248545 -0.12833671
0001e0 9c 18 8b bc 99 89 91 bd 71 cc 86 bd 48 6c 62 3e
       -0.016979508 -0.07106323 -0.06581963 0.22111619
0001f0 c9 44 52 3e fb 6d 89 bd b1 33 62 bc 08 db ad 3d
       0.20534052 -0.0671043 -0.0138062695 0.084890425
000200 82 2f 4d 3d 35 4f 3d 3e 1e a2 05 bd ac 9f 72 be
       0.050094135 0.18487246 -0.03262531 -0.23693722
000210 65 1d 60 bd 9c 26 11 3d 89 d2 18 3d be 83 a8 bd
       -0.054715533 0.03543721 0.037310157 -0.08228253
000220 b0 64 8a 3c 83 a6 51 be 71 7d 82 be df a4 5f be
       0.016893715 -0.20473675 -0.2548633 -0.21840237
000230 08 91 82 bd 67 ae 2a bc b4 91 54 be ff d8 51 bc
       -0.06375319 -0.010417557 -0.20758706 -0.012808084
000240 bc 4c 6b 3c 7f b5 ab bc 15 e9 01 bb 47 1b 9a 3d
       0.014361557 -0.020960568 -0.0019822766 0.07524734
000250 ac fa 98 be cb c4 c2 bd b2 ef 04 be 84 1e 54 be
       -0.29878747 -0.095101915 -0.12982062 -0.20714766
000260 d5 df fa bd 53 5d ef 3d 06 b7 31 be f6 ff e8 bc
       -0.12249724 0.11687722 -0.17354974 -0.028442364
000270 aa b8 d4 bd bc ad 35 bd 44 96 fb 3d d6 8b 24 be
       -0.103867844 -0.04435514 0.1228452 -0.16068968
000280 95 50 40 3e 9d 38 5e bd 61 01 7d 3e 85 79 57 be
       0.1878074 -0.05425321 0.24707557 -0.2104245
000290 96 46 0b bd f9 7c 09 bd de ed d5 3d a5 74 0b be
       -0.034002863 -0.03356645 0.1044576 -0.13618715
0002a0 1c 4a cc bd 68 04 98 bd 8c 9e d1 3d ae d8 8f 3d
       -0.09975073 -0.074227154 0.102353185 0.0702375
0002b0 d3 0d 46 be e7 79 0c 3d 66 3e 28 3e 9e 48 21 be
       -0.19341211 0.034295943 0.16430053 -0.15750358
0002c0 59 68 15 3d 88 65 49 be 5d c9 3b be 63 8c 33 be
       0.036476467 -0.19667637 -0.18338533 -0.17534022
0002d0 77 36 b9 3d 4a cf 97 be a0 e9 96 be 70 77 43 3e
       0.090435915 -0.29650337 -0.29475117 0.1908853
0002e0 ec 62 bb bd 95 dd c0 3c 5b 63 2c 3d 0d da e6 3d
       -0.09149727 0.023543159 0.04208694 0.11272059
0002f0 f2 57 b9 3d 33 b8 67 3e f7 e9 e1 3d 94 df 3f be
       0.09049977 0.2262886 0.110309534 -0.18737632
000300 ab bf 58 bd 73 7e 56 3e db 16 5d 3e 39 55 2e be
       -0.052917164 0.20946674 0.2159075 -0.17024697
000310 1b 6b 5a be d7 7c 5f bc 35 ea e3 3d ac 85 31 3e
       -0.2132992 -0.013640604 0.11128656 0.17336148
000320 88 79 a8 3d a6 62 e5 bd ad 17 1d 3e 10 09 12 3e
       0.08226305 -0.11200456 0.15341063 0.1426127
000330 3d 5c 86 3b eb c8 d6 3b a9 5f cf 3d 4c 6a 1b 3e
       0.004100351 0.006554713 0.101256676 0.15177268
000340 09 c0 be 3d b0 c6 75 be 2f 78 50 bd 47 36 0a 3e
       0.093139715 -0.24001575 -0.050895866 0.13497268
000350 1e 1d e0 3d 37 17 6e bd 31 0e 94 bd f4 9f 84 3e
       0.10943054 -0.05812761 -0.07229269 0.25903285
000360 a9 2a 75 be dc 79 d1 bd f6 71 76 3d 89 a0 e1 bd
       -0.23942055 -0.10228321 0.060167275 -0.11016948
000370 c4 3f 8d 3e c5 3a ba bd 8c d8 ff bb cb 04 91 bd
       0.27587712 -0.09093241 -0.007807797 -0.07080992
000380 3a 38 ea 3d cd dd 95 3e 65 5f ab be 3a cc 21 3e
       0.114365056 0.29270783 -0.33471218 0.15800563
000390 f5 9c ce 3c 80 ad 55 3e e8 83 09 be 43 f8 35 be
       0.025221327 0.20866966 -0.13429224 -0.17770486
0003a0 4d 34 db 3d 09 ee 59 3e f7 84 65 be 8d 3c e4 bd
       0.10703335 0.2128221 -0.22414003 -0.11144362
0003b0 00 e3 0c 3e 3b 18 5e 3c 70 98 b3 3d e4 2f 94 3e
       0.13758469 0.013555582 0.087693095 0.28942788
0003c0 aa 28 41 be 6c 22 33 3c 50 12 33 3e a8 fa 73 3e
       -0.18863168 0.0109335 0.17487454 0.23826087
0003d0 10 df e1 3d c8 99 fc 3d de fe e7 3c 7c eb 8b be
       0.11028874 0.12334019 0.028319772 -0.27328098
0003e0 f6 23 66 3e b5 d6 1c 3e 6b 73 89 bd 4f 61 3e be
       0.22474656 0.15316279 -0.06711467 -0.18591808
0003f0 fe 5b 7a be df 1c c2 bd 95 d1 50 3e a2 16 99 3d
       -0.24449155 -0.09478163 0.20392449 0.0747502

lin_l.bias f4 [32]
000000 f4 9d 20 be 9c 0c 00 be 08 aa 1c bd 61 f0 aa bd
       -0.15685254 -0.1250481 -0.038248092 -0.0834663
000010 09 3c 2b be 33 93 b6 bd d1 4b 8e 3d 73 6b 33 3e
       -0.1672212 -0.08914795 0.069480546 0.17521457
000020 72 45 41 3e 3b 02 30 be 97 e0 87 ba e9 69 45 3e
       0.18874148 -0.17188351 -0.0010366616 0.19278683
000030 04 59 42 be cd 7a 3a be 6b 15 17 3e 47 b8 2e bd
       -0.1897927 -0.18210907 0.14754264 -0.04265621
000040 3e e5 ec 3c a7 60 19 3e 94 ac 08 be 85 d2 5b 3d
       0.028917905 0.14978276 -0.13347083 0.053667564
000050 b4 89 db bd ec 4a a9 3d 30 8d 29 be 22 78 9b 3d
       -0.10719624 0.08266243 -0.16557765 0.07591273
000060 36 4a 9b bd 1e d1 21 3e c9 5b 09 bc 34 2a ae bd
       -0.07582514 0.15802428 -0.0083837 -0.08504143
000070 e8 fd 9b 3d 51 1f 7c bb b1 5c c9 bc b0 e9 45 3d
       0.07616788 -0.0038470814 -0.024580332 0.048318565

onnx::MatMul_68 f4 [32, 32]
000000 d9 3c 48 bc 05 8d 29 bd e4 92 0f be 71 6b 26 be
       -0.012221538 -0.041394252 -0.14020878 -0.16251923
000010 2c 6e d0 3c 48 b0 0f 3e 1f 64 1a 3c a0 e3 30 3e
       0.025443159 0.1403209 0.009423285 0.17274332
000020 1d 59 a3 bc c0 10 99 bb f0 0b 94 bd 48 40 bd bd
       -0.019939953 -0.004671186 -0.072288394 -0.09240776
000030 ce a5 23 3e 4c 75 2f 3e ad dc c0 bd 60 de 3b bc
       0.15981218 0.17134589 -0.094170906 -0.011466593
000040 6e e6 ca 3d cd 56 13 3c 36 81 83 3e 4c 64 c5 bd
       0.09907232 0.008992863 0.25684518 -0.09638271
000050 ef 80 c4 bc 6b 60 9b bd c1 fd 64 3d 46 6e 3c 3e
       -0.023987262 -0.0758675 0.05590606 0.18401441
000060 dc cc 00 be 00 87 15 3e 0d f2 2a 3d 9d 82 32 be
       -0.12578148 0.1460228 0.041734744 -0.17432638
000070 4c c0 c7 3d a7 2c 64 bd 64 c3 e4 3d 85 f5 43 3d
       0.097534746 -0.055706646 0.1117008 0.047841568
000080 e6 26 3c bc 41 ce 3b 3e c6 cd 40 be 96 13 9f 3d
       -0.0114838835 0.18340398 -0.18828496 0.077674076
000090 8f 5a 4a 3e 1f 9c a2 bd 0d 1f 3d 3d 6e fd d8 bd
       0.19761108 -0.07939934 0.04617219 -0.10595213
0000a0 20 e3 de bd 43 8b 15 3e 54 f2 93 bd 11 e9 49 be
       -0.108831644 0.14603905 -0.07223955 -0.19717814
0000b0 39 59 3a 3d 86 5b 5a 3e 1b de 05 3e 05 89 0f 3e
       0.045495246 0.21323976 0.13073008 0.14017113
0000c0 1d 8e d7 bd 31 a5 23 be 83 80 82 3d 9c 69 3f bc
       -0.10525153 -0.15980984 0.06372168 -0.011682894
0000d0 ad 8d 35 be 20 f7 76 3d a3 9b 01 be c5 97 ed bd
       -0.17729826 0.06029427 -0.12657027 -0.11601213
0000e0 58 8d 00 be fc 25 c9 bd 57 20 a4 bd 15 86 ff 3d
       -0.12553918 -0.09821698 -0.08013981 0.12476746
0000f0 be 93 1c 3e 69 c7 32 3d 2b a2 f0 3c 39 f9 76 bc
       0.15290734 0.043647204 0.029374203 -0.015074068
000100 15 a5 07 3e a5 ac bb 3d b8 46 8b bc 26 63 16 be
       0.13246568 0.09163789 -0.017001495 -0.1468626
000110 19 c2 64 bd 7a f8 2c be 92 8a 82 3c 65 2f 26 bd
       -0.05584917 -0.16891661 0.015935216 -0.040572543
000120 06 a3 bf bc cc 6c 23 bd 33 20 9f bc 45 b4 90 bd
       -0.023393165 -0.03989868 -0.019424533 -0.07065634
000130 a6 93 12 3e 4d d7 55 3e f0 7a 75 bd 85 88 0f 3e
       0.14314136 0.20882912 -0.059931695 0.14016922
000140 e6 c3 23 3e 9a cd a6 3d a5 12 23 3e 82 13 42 bd
       0.15992698 0.08144684 0.15925081 -0.047381885
000150 68 f9 d1 3d c2 89 ff 3d bf 9c 01 bc e8 e5 89 3e
       0.102526486 0.12477447 -0.007910906 0.26933217
000160 cf 9f 28 3e 70 43 0e be 91 e6 25 3d 47 a5 b8 bd
       0.16467212 -0.13892913 0.04050309 -0.09015899
000170 c2 5a ce bd c8 2a 5e bd b3 b3 7d bc b0 99 bf bd
       -0.100759044 -0.054240018 -0.015484738 -0.093554854
000180 2f e6 c4 bd 76 9f 0a bd 85 64 42 3e 48 b8 36 3e
       -0.096142165 -0.03384348 0.18983658 0.17843735
000190 3d a6 b9 bd bd 74 28 be b2 ec 20 3c ac 62 ff bd
       -0.090649106 -0.16450782 0.009822058 -0.12469992
0001a0 9b f7 b9 3d 0e e6 46 3c 5c 23 ee 3d a4 5d 19 3e
       0.0908043 0.01213981 0.11627838 0.14977127
0001b0 3d 27 1b bd 06 af 69 bd c8 6f 69 bc 76 30 5c 3e
       -0.037879217 -0.05705168 -0.014247842 0.21502861
0001c0 86 62 af 3d da e0 a6 bd 7f 50 82 bc 1f 18 4a bd
       0.08563714 -0.08148356 -0.015907524 -0.04933941
0001d0 be de f5 3d 55 1a 60 3d 54 13 6d 3d f8 ee 53 be
       0.12005375 0.054712612 0.05787976 -0.20696628
0001e0 29 73 86 bb 37 24 70 3d de 75 d4 bb c4 a0 a0 3d
       -0.0041030836 0.058628287 -0.0064837774 0.078431636
0001f0 2b bd 62 bb 3e 65 31 3e cc 70 8f bc 82 53 fd 3d
       -0.0034597616 0.17323777 -0.01750984 0.123694435
000200 95 25 19 3e 1c 84 43 3e da a5 a2 bd 64 8b d3 bd
       0.14955743 0.19093364 -0.0794179 -0.10329321
000210 54 96 13 bc fc 67 21 3d d0 14 c3 3d b9 83 3a bd
       -0.009008009 0.039405808 0.09525454 -0.045535777
000220 80 69 ae 3d 35 e3 e2 bb 77 e6 ff bd 8a a2 30 bd
       0.08516216 -0.006924058 -0.124951296 -0.04312376
000230 5b d6 d6 bd ae 0b 45 3e 86 71 06 be 53 7e a7 3d
       -0.10490104 0.19242737 -0.13129243 0.08178391
000240 b0 40 30 bd ef ea 35 3d b5 c2 10 bc 51 f9 0f 3e
       -0.04303044 0.044413503 -0.008835484 0.1405995
000250 44 a1 cf 3a 88 68 3e 3d 8c 61 c1 3c e2 9b fe 3c
       0.0015840908 0.046486408 0.023606084 0.03108019
000260 a9 6b f2 bd 4b d8 05 be 13 ba 1a 3e 89 d9 8a 3e
       -0.11836941 -0.1307079 0.15110044 0.2711909
000270 88 ce d4 3d c8 f2 bb bd 1a 9e d5 bd 2b a9 26 3e
       0.10390955 -0.09177166 -0.10430546 0.1627547
000280 70 71 4d 3e 20 e7 f7 bd 8e a9 d2 bd 19 cb 49 3d
       0.20062804 -0.121046305 -0.10286246 0.049265955
000290 58 3b 6f 3c 65 5d c0 3d 5e af 6c be 29 29 b7 3d
       0.014601551 0.093928136 -0.23113772 0.089433976
0002a0 20 81 d8 bd 8d 80 a7 bd fe 75 50 3d 5c 36 20 be
       -0.10571504 -0.08178816 0.050893776 -0.15645736
0002b0 f0 f3 2c be 58 86 44 3e c9 8f bd bd a3 63 f9 3d
       -0.1688993 0.19191873 -0.092559405 0.12177207
0002c0 19 82 6f bd 98 43 85 bd 2e fb a3 3d 6b 61 fa bd
       -0.05847368 -0.06507033 0.08006893 -0.12225612
0002d0 40 20 3c 3d 66 c3 20 bb 4a 05 57 3e 59 99 37 bd
       0.045929193 -0.002453053 0.20998111 -0.044823978
0002e0 79 6d af bc 71 26 26 be dd 28 ad bc 8f 61 04 3e
       -0.021414505 -0.16225602 -0.02113765 0.1292784
0002f0 3b ae ea bd e4 c0 ad 3c 1c 41 9c 3c 4e 0d 0e be
       -0.11459013 0.021210141 0.019074015 -0.13872263
000300 e1 b1 f6 3d 59 32 4f 3d 41 13 b6 bc 5d ce 54 3c
       0.120456465 0.050585125 -0.022225978 0.012988654
000310 ce c5 74 3c 98 89 28 be 65 03 49 bc 04 da 0e be
       0.014939738 -0.16458738 -0.012268876 -0.13950354
000320 a5 7b 09 3e 6f 8a 23 3e b1 50 6a be d4 45 fc bd
       0.13426073 0.15970777 -0.22882344 -0.12318006
000330 64 cd 21 be 23 78 fc 3c db 9c ef bd 2c 83 0f 3d
       -0.15801007 0.030819004 -0.1169984 0.035037205
000340 aa dc 29 be bc 9d 03 be b9 8c e3 bd 73 34 2a bd
       -0.16588083 -0.1285314 -0.11110825 -0.041553926
000350 51 8f d7 bd 91 97 ce bc 3e a9 61 3e 46 7a 3c 3e
       -0.10525382 -0.025218757 0.22037217 0.18406019
000360 e2 a1 ce 3d 62 3b d7 3d 9a 57 06 3e e6 85 96 bb
       0.100894704 0.10509373 0.13119355 -0.0045935987
000370 ff 29 ea 3d 38 7d 98 3b c5 42 f8 bd 8c 7b 6b bd
       0.11433791 0.004653599 -0.1212211 -0.05749087
000380 22 c7 52 3e a2 98 be 3d 16 49 a6 bd f2 f6 39 be
       0.20583776 0.09306456 -0.08119409 -0.18160608
000390 89 bf 3d 3c 74 5b df 3d 6c e2 c1 bd 81 7e 0c be
       0.01158131 0.10906115 -0.09467015 -0.13720132
0003a0 dc 98 a8 3c 9b 59 15 3e 84 69 7a bd 0e a4 2c 3d
       0.020580702 0.14584963 -0.061135784 0.042148642
0003b0 b6 8a 11 be 27 9c 05 be 2c a7 b2 3b 73 07 89 3c
       -0.1421307 -0.13047849 0.0054520573 0.016727185
0003c0 4a dd a8 3d f2 e1 f8 3d e7 32 cd 3d 29 ef 38 be
       0.082453325 0.12152471 0.100194745 -0.18059982
0003d0 75 9f a9 bd f5 13 16 3e 9a b7 48 3e 44 f3 2f be
       -0.08282367 0.1465605 0.19601288 -0.17182642
0003e0 fc ab 13 be 58 55 e8 bd 72 0c 99 bd cb 45 df 3d
       -0.14421076 -0.11344403 -0.07473077 0.10901984
0003f0 f0 c0 6e 3c 5f 61 00 3e 56 12 23 be 58 29 11 3e
       0.014572367 0.12537144 -0.15924963 0.14175928
