ksmt-neurosmt/src/main/resources/decoder.onnx (onnx, 13907 bytes, 7 tensors)

linears.0.weight f4 [32, 32]
00000000: c624 b3bd 6413 32be 0c67 46bc 8812 4e3d
00000010: d69d 12be 23cc a7bd 1f6d 3b3e af86 2abd
00000020: 5aba 5d3d 51f0 16be 1336 cc3c 4da6 1d3d
00000030: 2047 c8bd d532 2abe 2f7c 7d3a 68a4 023e
00000040: ecff 79be 13b8 b3bd 4fbd 14be ff0e 28be
00000050: b934 27be a4d0 03be f851 49be 14dd 373e
00000060: 1a1d 873d 4aa9 4b3e 818e bebd 02ee 93bd
00000070: cade ba3d 1bf9 a4bd 12ce 713e ada9 48bc
00000080: df90 393d 1e26 b2bd 1be6 5bbc b349 1abe
00000090: 7a3d 30be 1619 f73d e3d9 5cbd 5a5e f93d
000000a0: 8033 24be 809f 443e 1e74 dfbd 8158 c2bd
000000b0: d8d6 863d ff34 c03d aa99 f0bd f7b8 e6bb
000000c0: de2f 1c3d 4912 353e 47a9 9b3e 4b36 2a3d
000000d0: da64 493e 44f3 27be 76f5 9abd f80d b63c
000000e0: 0006 13be 1fa4 8b3c 89a5 08be 226c 86bc
000000f0: 7197 27b6 ba78 083e dabd 0abd 77d2 053e
00000100: 0dad 903e c2af 1cbe 561e a03c fc4b f43c
00000110: af27 1f3b b378 e4bd cb18 40be 7853 073e
00000120: dea3 48be e0c2 77bd 8a8f 053e 574a 6d3d
00000130: f159 7a3e 8dc5 3c3e 9fae c7bd 0281 afbc
00000140: 6e47 013e 2952 16bd a29d 943e dbca c43d
00000150: 4bf0 f5ba 0c52 4e3d 00b7 afbb 99bc 31be
00000160: 5467 2b3e c60f 1f3e 150a 4f3e c78a 2ebd
00000170: 2d3d 9a3c be68 383e 48fa d1bd f7f3 953d
00000180: 1c8d 13bd 05d9 2dbe bd0f 55bc 0f43 013e
00000190: fd1c 1bbe 4be2 2fbe e163 2d3d 10d3 cfbb
000001a0: 1d1e a1bc 228a 06bd 7401 7bbd 4e3c 483e
000001b0: de0a 2d3e 4332 933d 2b71 3c3e 0596 2c3c
000001c0: cfe7 c63d e1c0 423e 5b9c 843e 7282 3e3e
000001d0: 9500 0e3e 3dbc 3a3d 0f68 21be 473c 6dbe
000001e0: 424c 493a bf89 d2bd b7e5 283d 4735 353d
000001f0: 6956 38be 2173 2e3d 338c 2fbe 9e42 893e
00000200: 6dfa ce3c 67b0 17bd b93a 61bd 3ae9 acbd
00000210: 9a25 84bd e00b ee3a 6fe7 4cbd a1ea 0f3e
00000220: e5b3 d2bd 01d8 1f3d 0702 093e cfd6 0bbe
00000230: a3f9 29be 512f 5ebc 0b6d 25bd 3ed7 a9bc
00000240: 4939 553c 2db3 00be 6e66 2bbe c88d 663d
00000250: 03c8 3b3d 3c81 373d ee3a 07bd a0db 2c3c
00000260: f095 0cbe b57f 9a3d 6be4 243e fd1d ebbd
00000270: 5161 123e d429 7d3d 4465 60bc 55f4 413b
00000280: 2b92 273c dda0 d1bd e5bd 8f3c 4a35 14be
00000290: c93c e6bd 2c09 bb3d a1b4 b0bd f4e9 08be
000002a0: 8441 113e 3df9 1fbe 99c2 31be 416a 47be
000002b0: 744e 60be 6dae 73be cea3 1b3e b051 13bd
000002c0: 999c 493d 61e5 703d 8935 dbbc b8d8 84be
000002d0: 5a23 683c 287b 8abc 797d 08be 30db f6bd
000002e0: 218a 843d 931c d33d d025 afbc 5d2e 27be
000002f0: e0b0 dfbd 8d25 44be 3666 263d 3726 c2be
00000300: 9a1a 573e dd9e be3d 8510 833d 398a f7bc
00000310: fc7b 5abc 02e1 57be 4ec3 0fbe 4250 86bc
00000320: 33b0 37be ee42 a93d e8b8 ba3d 3833 89be
00000330: 0354 3c3e 1f78 b43b 8c45 ce3d 6c93 5cbe
00000340: 5b82 163d cb42 8b3d aba5 5a3e acbb 873e
00000350: eb6a 1d3e b00a 973d 6539 0dbe 1972 40be
00000360: c90e f2bd aec6 3bbe 736c d33d 5f02 a93e
00000370: 077c 11bc 3a01 8d3e 3fe3 343d 2997 9f3e
00000380: 9825 70be d9db 9dbe 7788 233d df5a b13d
00000390: 321a 15be 69c2 8fbd 9142 d63c 2ed0 5e3d
000003a0: d97f 5a3e 6a3e 743d 38c5 20bc 32d6 f13e
000003b0: 90e2 bdbd 4462 af3b 23b8 36bd 10c0 d2bd
000003c0: 5662 e5bd 6cfc e23d d43f 903d 26f4 ae3e
000003d0: b4bf cc3d edaf 17be d8ec 35be 63c2 383e
000003e0: 616a 58be ae90 cabd 1950 53be 50e2 c3be
000003f0: 51e5 0d3b c84a 973d 26df 333e b27f 8a3e
-0.08747248 -0.1739021 -0.012109529 0.05031064 -0.14318022 -0.08193233 0.18303345 -0.04163235
0.054132797 -0.14740111 0.024928128 0.038488675 -0.09779191 -0.16620953 0.0009669689 0.12758029
-0.24414033 -0.08775344 -0.1452534 -0.1641197 -0.16328706 -0.12872559 -0.19660175 0.17955428
0.065973476 0.19888797 -0.09304524 -0.07223131 0.09124525 -0.080553256 0.23613766 -0.012247485
0.045304175 -0.086986765 -0.013421561 -0.15067177 -0.17210951 0.12065332 -0.05391873 0.12176199
-0.1603527 0.1920147 -0.109108195 -0.09489537 0.06583947 0.09385108 -0.11748059 -0.0070410925
0.038131587 0.17682756 0.30402586 0.041555684 0.19667378 -0.16401392 -0.07566349 0.022223458
-0.14357758 0.017046032 -0.13344397 -0.016408984 -2.497309e-06 0.13327304 -0.033872463 0.13068567
0.28257027 -0.15301421 0.019545715 0.029821388 0.0024285128 -0.11155834 -0.18759458 0.13215435
-0.1959376 -0.06048858 0.13043037 0.057932224 0.24448372 0.18434735 -0.09750103 -0.02142382
0.12624905 -0.036699448 0.29026514 0.09609004 -0.001876363 0.050371215 -0.0053623915 -0.173571
0.16738635 0.15533361 0.2021869 -0.042612817 0.018827999 0.18008706 -0.102528155 0.07321923
-0.036023244 -0.16977318 -0.013004241 0.12623237 -0.15147777 -0.17176168 0.04233158 -0.0063422993
-0.01966768 -0.032846577 -0.061280683 0.19554254 0.16898677 0.07187321 0.18402545 0.010533814
0.09712183 0.1901889 0.2590054 0.18604448 0.1386741 0.045589674 -0.15762351 -0.23167525
0.0007678905 -0.10280179 0.0412347 0.044240262 -0.18001713 0.042590264 -0.17143326 0.26808637
0.025265897 -0.037033465 -0.054987643 -0.08442922 -0.064524844 0.0018161498 -0.0500254 0.14054348
-0.102882184 0.039024357 0.1337968 -0.13656162 -0.16599135 -0.013561086 -0.040387195 -0.020732518
0.013014146 -0.1256835 -0.16738293 0.056287557 0.045845043 0.044800982 -0.033015184 0.01055041
-0.13729072 0.075438894 0.1610276 -0.11480329 0.14294936 0.06180747 -0.013696019 0.0029595096
0.01022772 -0.1023576 0.017546603 -0.14473453 -0.112420626 0.09132609 -0.08628202 -0.13370496
0.14185148 -0.1562242 -0.1735939 -0.19474126 -0.21904927 -0.23797007 0.15199205 -0.035966575
0.04922161 0.058812503 -0.026758926 -0.25946593 0.014168585 -0.016904429 -0.13329114 -0.120535254
0.064716585 0.103081845 -0.021380335 -0.1632628 -0.10922408 -0.1915495 0.04062482 -0.3791978
0.21006241 0.093076445 0.06399635 -0.030217277 -0.013335224 -0.21081927 -0.14039347 -0.016395692
-0.17938308 0.08264719 0.09117299 -0.2679689 0.18391423 0.0055074836 0.10071859 -0.21540612
0.03674541 0.06799849 0.2135226 0.2651037 0.15372817 0.07375085 -0.13791426 -0.18793525
-0.11819226 -0.18337509 0.103234194 0.33009622 -0.008879668 0.27539998 0.04416203 0.31170014
-0.23451841 -0.30831793 0.039925065 0.086599104 -0.14560774 -0.07019503 0.026154788 0.054397754
0.21337833 0.059629835 -0.009812646 0.4723373 -0.09271729 0.0053522903 -0.0446092 -0.10290539
-0.11200397 0.11083302 0.07043424 0.34170645 0.09997502 -0.14813204 -0.1776613 0.18042903
-0.2113433 -0.09890877 -0.20636024 -0.382586 0.0021651576 0.0738731 0.17565593 0.2705055

linears.0.bias f4 [32]
00000000: 52c1 3b3e 0ef4 a03b 12a5 2d3e f6df 3abd
00000010: dbf8 be3d 28b5 c9bd 3832 fabd 8a62 5c3d
00000020: 3507 043e f992 c93d 9b7f 683c 81b0 b53d
00000030: c512 0cbd 5155 813d c96f f33d eead 9bbd
00000040: 5f6a d5bd 0557 043e 98ca 803d 8b9d d43d
00000050: f1d1 62bd 4170 293e 686d d13d b42c 13be
00000060: 5855 d03c fb06 7f3d f5d2 f33d 6456 aebd
00000070: 9b83 5c3b 95cd 2a3e 0974 2dbe 4655 14be
0.18335465 0.004911906 0.169575 -0.045623742 0.09324809 -0.09849006 -0.1221661 0.05380491
0.12893374 0.09842486 0.01419058 0.08871556 -0.034197588 0.06315101 0.11886556 -0.07601534
-0.10420679 0.1292382 0.06288642 0.103816114 -0.055375997 0.16546728 0.10225946 -0.14372522
0.02543132 0.062262516 0.11905471 -0.085125715 0.003364778 0.16679986 -0.16938795 -0.14485654

linears.1.weight f4 [32, 32]
00000000: 81f3 a03d bb7d 83bd 43ca 94bd 4fa6 b8bc
00000010: 4615 9dbd 9912 ddbd 1a69 923d aef0 8dbd
00000020: 4403 f53c 82eb a23d 1eda 263e 85ec 0c3e
00000030: 8add b23c 7aa7 203e 406a 32be 9bb0 203e
00000040: d23d 4bbd 8da1 0abe 5074 60bd a301 bbbd
00000050: 66e0 b9bd fa53 a9bd 63a0 b9bc ac14 0d3e
00000060: 3a2e eebd 5318 3ebc 94c5 30be cb1c f0ba
00000070: dffc 8cbd 2f56 0bbe 4586 96bc a0dc c0bd
00000080: 414b 62bd 7220 a9bd d6d2 273d 5d7c 033d
00000090: aec2 0fbe 189a 11bd 4a0c 32be 7f58 b6bd
000000a0: 101a f1bd e725 01bd 0525 e63d 5a01 203e
000000b0: 8a34 dbbc 2d37 1fbe c059 543d 6595 853d
000000c0: a151 34be c82d cf3d bce8 2b3c d6fc df3d
000000d0: 2ff5 3abd 1b78 73bd 0d6f 853d 1972 12be
000000e0: 098e b23d f0d4 0c3e 778a 8fbd 0b98 00be
000000f0: 2f04 2abe bc6f cabd d58b 07be d7fb 243c
00000100: e4b8 203e 352a 28be 33fe 46be be2d 603c
00000110: 083b 55bd ce70 713e 23a7 cdbe dd78 3bbd
00000120: 3fb4 673e 2747 863c 9282 00be b425 943e
00000130: bed1 4c3e 162d 9fbe a8af e43d 18ad 3b3e
00000140: a895 8dbe 3bcf 7c3d cad7 3e3d 0911 113e
00000150: 2ade 8d3e 277c a5bd 809e ccbd ef74 40be
00000160: c97a 423f 6ca7 47be 7567 153e 6592 c8bd
00000170: cd91 a8bd 7b91 acbd bf19 173d 0ae4 b33d
00000180: 1aea 2d3d e457 12be 5aa7 06be ac39 7c3d
00000190: 82e7 a7bd 6e46 12bd e21e fe3c 670f ad3c
000001a0: ef67 1e3e bb5e 2dbe ab09 543c 80a7 1a3e
000001b0: 2856 873d f010 1e3e c1e5 35be 9882 97bc
000001c0: 8f2d c3bd 7654 66bc 5ee7 073e bbe1 ce3c
000001d0: 6dc3 1cbe 843d 65bd 0867 7fbd 5bd2 3fbd
000001e0: 3639 ee3d c94e 42bd 272c 69bd d29e cfbd
000001f0: 910f a4bd f9da a5bd c415 283e 1522 2f3e
00000200: 08b6 74bd 241b 03be 2ae4 98be cfeb 333d
00000210: 7855 ecba 1ef9 c73d 55f7 8bbe b9d9 233d
00000220: 2abe 213e a739 533e 1a76 16be 6624 ef3e
00000230: 1835 1c3e 4e4a f7be 93ec 173e 5078 c7bb
00000240: 25ee e4be ceab 1b3c 9f59 2dbe f128 1cbe
00000250: 9b09 ba3d d47c d6bd 7df2 3b3e 55b5 66be
00000260: ff10 4d3f 51ee c9bd d085 073e bbec 943d
00000270: 850a 203e d5e3 e3bd 6cc1 e0bd e546 e2bc
00000280: 781b d03d ad75 03be 9da2 353d 527b 31bc
00000290: dd28 12bd dc92 aa3d aa5d 92bd 0115 0c3e
000002a0: 70f3 b83d 0379 053d 29a8 e7bb 8939 d8bd
000002b0: 5a77 24be df97 533d 9691 11bb 142a 1bbb
000002c0: e876 023e b39c ee3d f200 533c ccaa eebb
000002d0: b6f9 29be 27c0 ecbc 01fb f1bd e63a e13d
000002e0: 26ef 03be 329f 15be 857f 28be f941 7e3c
000002f0: d6ef 643b 3e46 11be a309 2fbe 8226 aebc
00000300: f792 143e f20d b9bd c40c 84be bd08 0b3e
00000310: ec6e 8c3d 3492 3abe cba9 46be cb28 b3bc
00000320: 679a 923d 03ea 923d a280 1b3e ebed 0c3f
00000330: 63b9 c8bc f43c b0be 6e3e 96bc c14e 9b3c
00000340: 547d 30be 8ec4 00be 3a08 d83d df63 c93d
00000350: f652 d93d 232a f5b9 09cb 01be 5677 bb3c
00000360: 2f87 413f be31 d4bd 032a ee3d 9015 dd3d
00000370: ba5b 0e3e 1fae 1d3e be9e e6bd 875d 803d
00000380: 64f1 653e 7cb2 f3bd 6cf5 c5be 8ee4 55be
00000390: 2f31 273e 8515 583e 33ec 66be a8a5 083d
000003a0: 7493 7e3e cd4d 6c3e cdd8 ca3d b0a0 9c3e
000003b0: 4616 04bc e0cb f4be d31b 6a3e 8d57 4d3e
000003c0: 1102 0fbf 17a7 0dbe f44d 0dbe d867 14bd
000003d0: e4d7 213e 1e34 c2bd 5332 523d 9050 64be
000003e0: c057 2f3f 2297 78bd c9ed 0c3e cc29 1e3e
000003f0: e529 a7bd 4ca6 02bd a1af 13bd b232 aebd
0.07858945 -0.064204656 -0.07265141 -0.02254024 -0.07670073 -0.10794563 0.07148953 -0.06930672
0.029908784 0.07955076 0.16294143 0.137621 0.021834154 0.15688887 -0.17423344 0.1569237
-0.049619503 -0.13538189 -0.054798424 -0.091311716 -0.09076004 -0.082679704 -0.022659486 0.13777417
-0.11629911 -0.011602479 -0.1726287 -0.0018319128 -0.06884169 -0.13607095 -0.018374572 -0.09417081
-0.05524755 -0.082581416 0.040972553 0.032101024 -0.14039108 -0.035547346 -0.173875 -0.08903598
-0.11772549 -0.031530287 0.1123753 0.15625516 -0.026758451 -0.15548392 0.051843405 0.06522635
-0.17609264 0.10116154 0.0104925 0.109368965 -0.04564398 -0.059440713 0.06515322 -0.14301337
0.08718497 0.13753104 -0.07008832 -0.12558 -0.16603158 -0.09884593 -0.13236935 0.010069809
0.1569553 -0.1642235 -0.19432907 0.013682781 -0.05205825 0.23578188 -0.40166578 -0.04576956
0.22627352 0.01639135 -0.12549809 0.28935015 0.20001885 -0.31089085 0.11166316 0.18327749
-0.2765324 0.061721068 0.04659251 0.14166655 0.2770856 -0.08080321 -0.09991169 -0.18794607
0.75968605 -0.1949746 0.14590247 -0.097935475 -0.08230934 -0.08426186 0.036889788 0.087837294
0.042459585 -0.1429134 -0.13149777 0.061578438 -0.081984535 -0.0357117 0.031020585 0.021125508
0.15469335 -0.16930668 0.012941758 0.15102959 0.0660823 0.15436149 -0.17763425 -0.01849489
-0.09530174 -0.014058223 0.13271853 0.025254121 -0.15308924 -0.05596687 -0.062354118 -0.04683147
0.11632006 -0.047438417 -0.056926873 -0.101377144 -0.080107816 -0.08098406 0.16414553 0.17102845
-0.05974391 -0.12803322 -0.29861575 0.043926056 -0.0018030843 0.09764312 -0.27337137 0.04000256
0.15795198 0.20627461 -0.1469349 0.46707457 0.15254629 -0.48298877 0.1483634 -0.0060873404
-0.4471294 0.009501411 -0.16928719 -0.15249993 0.09083863 -0.10473028 0.1835422 -0.2253011
0.8010406 -0.09859908 0.13234639 0.07271715 0.15629013 -0.1112744 -0.10974392 -0.027621696
0.10161489 -0.12837858 0.044344533 -0.0108326245 -0.0356835 0.083287925 -0.07146771 0.13679887
0.09030807 0.03258611 -0.007069607 -0.10557849 -0.16061154 0.051658507 -0.002221202 -0.0023676204
0.12740672 0.11650982 0.012878643 -0.007283544 -0.16599163 -0.02890022 -0.11815453 0.10997562
-0.12884197 -0.1461151 -0.16454895 0.015518659 0.0034932992 -0.14186952 -0.1709352 -0.021258596
0.14509188 -0.09035863 -0.2579099 0.13577552 0.06857094 -0.18219835 -0.19400708 -0.021870038
0.07158356 0.071735404 0.15185788 0.55050534 -0.024502462 -0.34421504 -0.018340316 0.018958451
-0.17235309 -0.1257498 0.10548444 0.09833502 0.10611527 -0.00046761436 -0.12675108 0.022884052
0.755969 -0.1036105 0.11629107 0.10795128 0.13902178 0.15398453 -0.112607464 0.06267839
0.22455364 -0.118992776 -0.38663805 -0.20887968 0.16327356 0.21101959 -0.2255104 0.033361107
0.24860936 0.23076554 0.09904633 0.30591345 -0.008061951 -0.47811794 0.22862177 0.20052929
-0.5586253 -0.13833271 -0.13799268 -0.036231846 0.15805012 -0.09482597 0.051317524 -0.22296357
0.6849327 -0.060691006 0.13762583 0.15445632 -0.081622876 -0.031896874 -0.036056165 -0.08505763

linears.1.bias f4 [32]
00000000: 42d7 2dbd 021e 0e3e 1f94 0d3e b7cb 2e3d
00000010: 988b 013e 5872 b9bd 8012 0cbd 4aa1 5b3c
00000020: 44f8 503d 9904 dcbd 0990 233a 7570 dcbc
00000030: 0ead 2d3d d51f bbbd 60c6 a63c 6047 6b3e
00000040: 9da3 9f3d a29a f83d c4af 2f3e a6f8 53bc
00000050: 4a71 133e d6d4 0dbe a20e 2c3e 6d54 613e
00000060: 022a c3bd ffbd 08be 2c6c 10be b7b5 c83d
00000070: 7c9c efbd 51ab d63d 5fa8 113e bd4a 1ebc
-0.042441614 0.13878635 0.13826035 0.042674746 0.12650907 -0.090550125 -0.03419733 0.0134051535
0.051018015 -0.107430644 0.00062394195 -0.026909092 0.042401366 -0.09136931 0.020358264 0.22976446
0.07794879 0.12138869 0.17156893 -0.0129377 0.14398685 -0.13850722 0.16802457 0.22004862
-0.09529497 -0.13353728 -0.14103764 0.09800284 -0.11699769 0.10481895 0.14224385 -0.009661374

linears.2.weight f4 [32, 32]
00000000: bda2 c73d 3da9 8b3d 0790 c7be aa47 1f3d
00000010: ec14 0fbe 3752 843c a7a1 933d 087a 7abe
00000020: d3d2 ebbe 6dc7 093e 593e 54bc b8cf 04bf
00000030: 4675 0abf e70d 8a3d 8e97 c5be b1fa 7a3e
00000040: ef5c f9be 849b 2abe 964f c6be 82ca 9c3d
00000050: 4ca8 753d 36fd 833e 923b 0ebf dab6 f93d
00000060: 75bc 2e3e d64c 9bbd 3ab8 663e e7ce 08be
00000070: 8f95 d2be a65c 373e e553 21bf e24f 05bd
00000080: 965d 9b3d 7107 d3bd ff64 9cbe 6eb8 1a3e
00000090: a7e6 adbd cd85 52bd bfb1 e1bd 4e20 91be
000000a0: 5c4b ddbe fb1d 873e 25fd 893d b91b c0be
000000b0: 9d92 b9be 5641 b8bd c8cb c8be cbc7 0e3e
000000c0: 03e2 d2be 0e30 49bd fd55 10be 01b8 e03d
000000d0: bc89 ac3e 0236 673e 6a7e d0be 927e 1d3d
000000e0: 57a2 78bd d560 bdbb 2ce7 513e fe37 a9be
000000f0: 6b33 dbbe 7924 743d 075a 25bf fc21 713e
00000100: 2327 fbbd 345c fe3d 3d07 9dbc 1628 8cbd
00000110: 3296 663e e38a 8e3d 46dc a2bb 766a 633d
00000120: 8d7a 193e acde 9ebd e8e9 023e df1b 7f3c
00000130: 697e b93d ffab 803c f0d9 66bc 4874 f2bc
00000140: 45c7 893e 08cd 8c3d ccbf 403e 0285 213e
00000150: 5cac b5be 791d 633b 3dc4 d83e 910f ae3b
00000160: 8fa3 423d a561 b1bc 625f 013d f18c 3b3e
00000170: 5f96 b73e c9b1 40bc abeb a63e bb0b f4bc
00000180: 2e46 133d 277a 4ebd 9373 2bbe bf21 03be
00000190: 1237 c63d fd66 ed3d 418e 06be 6f88 4d3d
000001a0: df1c 943d 47dd 9cbd faf3 6b3c a22e 25be
000001b0: e544 afbd 5268 203d 293c 873d bbbe 12be
000001c0: 2a6b f13d 5210 a63d d9ac 34bd 1d0c b23d
000001d0: 0922 13bd 5228 0f3e 6bbd 0e3e 0e1d b4bd
000001e0: 434a 843c cf28 133e 8896 f3bd 2a2a 863a
000001f0: a85c 0fbe 2de0 f8bd f9bb 093e 6b7b 00be
00000200: 8834 e1bd bb97 f23c 83d3 443e fe24 f8bc
00000210: 8f2d 093e b7ee a8bd 6766 cf3d 4e46 473e
00000220: 95ea b63e 0b13 dfbc 6500 643c 33a8 cc3d
00000230: 9fc9 a83e 94d8 333e 1998 303e 5700 023e
00000240: fb76 193e 2c73 d4bd c73f b63d 143a 0b3e
00000250: 2ce6 bc3e 5140 80be e211 913e ecea 3d3c
00000260: 6bf9 af3c 9f05 e63d 6545 32be c916 ee3d
00000270: 3fcd b83e 1ce8 8ebe 4947 653e 84fd 1fbe
00000280: 154e c63d 396a fd3d a905 e73d 4a23 173e
00000290: efcb 3d3e 41bd 333e 897f 373e e8f9 7cba
000002a0: a5ee 613e 102c b4bb a043 193e d22e 633e
000002b0: 32fd 483e 3b17 b6bd a955 523e 0a05 bdbd
000002c0: da29 513e 41fb c53d 85be 323e ad40 cebd
000002d0: f05e bdbe cd42 5f3d a9a4 e23e 4276 9dbd
000002e0: d780 d3bd 643a a23d e15f 763d 929d 1b3e
000002f0: a1e3 813e 8245 f7bd d1ed c53e 0405 27be
00000300: 6420 a9bd ff56 b7bd fecd 18bd 0cc9 aebd
00000310: 22d8 263e 3c07 443d 6ba7 243e 7159 463d
00000320: 777d adbd 5310 bbbd acc6 53bc efc2 763e
00000330: c467 663d ae2d cd3d ea40 a83e 32bf 3f3e
00000340: 9ace 8d3e 13e0 f23c 7480 3c3e 7296 f1bd
00000350: 3aa2 dabe d1a7 6ebc c25f d83e f0b2 b13d
00000360: 6d4f 44bd bee0 08bd 1ec5 32be ee5c 3a3e
00000370: ea76 8d3e d878 84bc 9d64 a43e 132c 54be
00000380: 12f7 16be 76bc e8bc 5c73 203e d070 cb3c
00000390: 3b24 7f3e 769a c33d 7858 43bd e40b 8c3e
000003a0: 0bd9 7ebd 2c66 f8bd 50de 20be 2942 493e
000003b0: 5ab7 833e dd8c a93d a26d 513e 9fac c03c
000003c0: 3e28 773e 1f70 d7bd cec5 cb3d 1df0 1dbe
000003d0: 81c4 71be 9d2e 95bc 0d2e c03e de97 0a3e
000003e0: 97e8 06be 9502 e23d 2bca 20be d889 93bc
000003f0: 32e5 9a3e e1bb bdbc 5f2f 6d3e 683c 563d
0.09747837 0.06819389 -0.38977072 0.038886704 -0.13972825 0.016152484 0.07208567 -0.24460614
-0.46059284 0.13454981 -0.012954318 -0.51879454 -0.54085195 0.06740933 -0.3859219 0.24509694
-0.48703715 -0.16660887 -0.38732594 0.07655813 0.059974954 0.25779122 -0.5555965 0.12193079
0.17064078 -0.07583015 0.22531214 -0.13360177 -0.4112973 0.17906436 -0.6301864 -0.032546885
0.075862095 -0.10304154 -0.30545804 0.15109417 -0.08491259 -0.051397134 -0.110202305 -0.2834496
-0.43221557 0.2639006 0.067377366 -0.3752115 -0.3624467 -0.08996837 -0.39217973 0.13943402
-0.41188058 -0.049118094 -0.14095302 0.10972596 0.33698833 0.22579196 -0.40721446 0.038450785
-0.060701694 -0.0057793655 0.20498341 -0.3305053 -0.42812666 0.059605096 -0.64590496 0.2354812
-0.12263324 0.1241993 -0.01916849 -0.06843583 0.22518232 0.06960084 -0.0049701063 0.05552145
0.14988156 -0.07757315 0.1278454 0.01557061 0.09057314 0.015707014 -0.014090046 -0.029596463
0.26909843 0.06875044 0.18823165 0.15773395 -0.35483062 0.0034655018 0.42337218 0.0053119143
0.047519263 -0.021653006 0.031585105 0.18315484 0.35856912 -0.011761137 0.32601675 -0.02979075
0.0359556 -0.050409462 -0.16743307 -0.12805842 0.096784726 0.11591909 -0.13140203 0.05017894
0.07232069 -0.07659393 0.01440143 -0.1613107 -0.085580625 0.039161988 0.066032715 -0.1433057
0.11788018 0.081085816 -0.044110153 0.08693717 -0.03592113 0.13980225 0.13939445 -0.08794604
0.016148692 0.14371036 -0.11893946 0.0010235955 -0.1400019 -0.12152133 0.13450612 -0.1254708
-0.10996348 0.029613366 0.1922131 -0.030291077 0.13396285 -0.08248656 0.101269536 0.19460413
0.35725847 -0.02723076 0.01391611 0.09993019 0.32966325 0.17563087 0.1724552 0.12695442
0.14986794 -0.1037353 0.08898883 0.13596374 0.36894357 -0.2504907 0.28333956 0.011591654
0.021481236 0.11231541 -0.17409284 0.1162544 0.3609409 -0.2791146 0.22390474 -0.15624052
0.09682862 0.12373776 0.112803765 0.14759555 0.18534826 0.17552663 0.17919745 -0.0009650276
0.22063692 -0.0054984167 0.14967203 0.2218583 0.19627836 -0.088911496 0.2054049 -0.09229477
0.20426121 0.096670635 0.1745549 -0.1007093 -0.36986494 0.054507066 0.4426625 -0.076885715
-0.103273086 0.079212934 0.06015003 0.15196827 0.2536898 -0.120738044 0.38658002 -0.16310507
-0.08258131 -0.0895214 -0.037305824 -0.085344404 0.16293386 0.04785846 0.1607949 0.04842514
-0.08471196 -0.09133973 -0.012925785 0.24097799 0.056251302 0.10018478 0.32862025 0.18725279
0.27696687 0.029647863 0.18408376 -0.11796273 -0.42701894 -0.014566378 0.42260557 0.08676708
-0.04792731 -0.033417456 -0.17458007 0.18199512 0.27629787 -0.016170904 0.32108012 -0.20719938
-0.14742687 -0.028410178 0.15669006 0.024834067 0.24916165 0.095509455 -0.047691792 0.27352822
-0.062218707 -0.12128863 -0.15709805 0.19654144 0.25725824 0.08278821 0.20451978 0.023519812
0.24136445 -0.10519432 0.099498376 -0.15423627 -0.23610117 -0.018210704 0.37535134 0.13534495
-0.13174663 0.11035649 -0.15702121 -0.018010065 0.30252987 -0.023160877 0.23162602 0.0523037

linears.2.bias f4 [32]
00000000: 3935 c0bd 316b 433e e5b3 14bc ab5b 74bd
00000010: 7311 2ebe 9eba 353e 48c6 06be b53c 85bc
00000020: 7155 56bd 6f5f 8c3d 2967 04be 9b41 3e3d
00000030: 2e70 b23d 8a5e 333e d2ba 5e3e 2059 00be
00000040: 6268 cabd 6dae 2d3d 5685 58bd fa23 ba3d
00000050: f8cd bd3d fd49 19be 901e 0a3d e817 363d
00000060: 81c0 9bbc 8cdb 93bd addc 983c ecaa 23be
00000070: c041 f6bd bca0 f2bd 494f 1bbe d76b 233d
-0.093851514 0.19083859 -0.009076093 -0.059657734 -0.16998844 0.1774697 -0.13161576 -0.016264299
-0.052327577 0.0685414 -0.12929977 0.046449285 0.08712803 0.17516533 0.21750954 -0.12533998
-0.09883191 0.042402674 -0.052861534 0.09088893 0.09267801 -0.1496963 0.033720553 0.044456393
-0.019012691 -0.072196096 0.018659914 -0.1598317 -0.120242596 -0.11847064 -0.15166964 0.039897766

out.weight f4 [1, 32]
00000000: 2a2d 02bf e797 1cbf 78ec a43e c76f e0bd
00000010: 347c 0bbf 12c0 783e 47fa d93e db1b bd3e
00000020: c57d da3e c224 823e a6b9 a43e 3f16 cfbe
00000030: 8311 9f3e 3ae4 e8be b8bf d4be 093b c53e
00000040: b49e f43e 7fbf 8b3e 57c6 ce3e ea6d 973e
00000050: fdc8 5d3e c497 e03c 6fa6 a43e fc5e fd3e
00000060: 1e42 18bf b4a6 5abd 42da 823e 34b2 cd3e
00000070: 971a e5be 6370 8dbd 4659 9e3e 9f16 0dbf
-0.50850165 -0.61169285 0.3221166 -0.1095882 -0.54486394 0.24292019 0.4257376 0.36935315
0.4267408 0.2541867 0.3217289 -0.4044666 0.31068048 -0.45486623 -0.4155252 0.38521603
0.4777733 0.27294537 0.40385696 0.29576045 0.21658702 0.027416117 0.3215823 0.4948653
-0.59475887 -0.053381637 0.25557142 0.4017502 -0.4474685 -0.06906202 0.30927485 -0.5511264
