ksmt-neurosmt/src/main/resources/embeddings.onnx (onnx, 256187 bytes, 1 tensors)

weight f4 [2000, 32]
000000 5c 08 37 bf 92 3b 8a 3e eb d1 e1 bf 8f 06 8c 3f
       -0.7149713 0.26998574 -1.7642187 1.0939502
000010 de b9 1a 3f 23 fb df 3c 3a 2f e9 bf e3 e5 32 bc
       0.6043986 0.027341431 -1.8217537 -0.010919067
000020 9c 2e 07 bf db 26 6a bf fb 1d 18 bf c4 06 21 bf
       -0.52805495 -0.9146554 -0.59420747 -0.6290095
000030 c4 2b cf 3e 1d a2 39 3e df 1b 0e 3e 6d 11 e3 be
       0.40463078 0.18128248 0.1387782 -0.44349232
000040 22 99 28 bf d7 92 a7 bc d8 d4 1c c0 96 ab 53 bd
       -0.6585866 -0.02045576 -2.450491 -0.05167731
000050 e4 f0 49 3e 27 d6 a3 be e8 a2 1f bf e8 30 20 3f
       0.19720799 -0.31999323 -0.6235795 0.62574625
000060 0e 3f 0b 3d ab 68 8a bf c8 39 6b be 42 47 bf bf
       0.03399568 -1.0813192 -0.2297126 -1.4943621
000070 ff 4d fb 3e 3b 08 08 3f 98 7f 96 be f0 6d e1 3f
       0.49082944 0.5313756 -0.2939422 1.7611675
000080 48 9f cd be cd e7 a5 bf 1b d8 ae bc 05 5b 4f bf
       -0.40160584 -1.2961365 -0.021343281 -0.8099826
000090 9f 00 ea bd 3b 1e e4 3f 0d 70 59 3d 3a f2 ae 3e
       -0.114259 1.7821726 0.053085376 0.3416918
0000a0 1f 3b 6f 3f 4a 92 27 3f 3d 11 a3 3e 34 01 a1 3f
       0.93449587 0.65457594 0.3184909 1.2578492
0000b0 37 d3 8c bf da e6 06 c0 88 b4 85 3e a3 c5 62 bf
       -1.1001958 -2.10784 0.26114297 -0.8858282
0000c0 fe 9b 1f 3f fb d6 18 bf 9f 9d 2e 3e 58 49 5c 3f
       0.623474 -0.59703034 0.17052315 0.86049414
0000d0 05 0b 9f 3f 2f 6c bf 3e 40 aa 12 bd 44 3b d8 3e
       1.2425238 0.37387225 -0.035806894 0.42232716
0000e0 98 f0 19 3e 38 e7 f5 be 3f 88 aa 3f 1c 78 f4 3f
       0.15033185 -0.48027968 1.3322829 1.9099154
0000f0 40 c0 05 3f 0c cf 1c bf ab 11 b8 3f 78 2c cf 3e
       0.52246475 -0.6125343 1.4380392 0.40463614
000100 d7 f2 b7 bf 1e 2c a6 3f 04 30 f9 bf cd d3 b8 3f
       -1.4370984 1.2982213 -1.9467778 1.4439636
000110 3f 2a a4 be 79 93 1b 40 75 f1 d3 3e 75 45 59 bc
       -0.3206348 2.430876 0.41395155 -0.013261189
000120 9b 45 a6 3e 75 18 a0 3d 97 9d cb be 98 33 e1 be
       0.3247498 0.07817165 -0.3976867 -0.43984675
000130 e7 51 28 be f2 c2 fe bf 3c f2 71 3c 19 6b 13 40
       -0.16437493 -1.9903243 0.014767226 2.3034117
000140 fe 4a 97 be 43 63 ab bc 5f d3 02 40 96 f7 4a be
       -0.29549402 -0.020921355 2.044151 -0.19821009
000150 79 10 5f bf 57 bd c2 be 52 8f 14 3f c6 e2 04 bf
       -0.8713451 -0.3803508 0.5803119 -0.5190853
000160 cf 15 e5 be 1f 68 40 bd 72 95 9c bf 77 b1 fc be
       -0.447432 -0.046974298 -1.2233107 -0.49354145
000170 40 35 ab 3f 43 98 94 3f dd f5 b3 be 0f 71 93 be
       1.3375626 1.1608967 -0.35148516 -0.28797194
000180 a3 de c8 3d c8 7a 0d c0 8e 07 db 3e f0 54 c5 3f
       0.098080896 -2.210619 0.427792 1.5416546
000190 71 c2 01 3f bd d0 9f bf c7 db b4 bf 73 35 f9 3d
       0.5068732 -1.2485577 -1.4129571 0.12168398
0001a0 5e 64 d2 bf 8a 0b 21 3f f1 19 ce 3f 1f 54 e1 be
       -1.643688 0.6290823 1.6101667 -0.44009492
0001b0 1c 8d e4 bf d1 ac c3 3f 3e d2 30 bf 39 e5 9c 3f
       -1.7855563 1.5287114 -0.69070804 1.2257453
0001c0 4c a8 10 3f 6c e2 91 bd 77 9b 20 bf 42 c1 3b 3e
       0.565068 -0.07123265 -0.6273722 0.18335441
0001d0 86 cd 9a bf 36 04 34 bf 77 a4 a5 bd f9 e9 08 3f
       -1.2093971 -0.70318925 -0.0808801 0.53482014
0001e0 cc 7d 28 3f 3e e5 62 3f e3 db a1 3f ac ed 0d 40
       0.6581695 0.88631046 1.2645229 2.2176313
0001f0 07 e2 09 3f f0 7c a5 3f 03 28 0c bf 99 a4 99 3d
       0.53860515 1.2928753 -0.54748553 0.07502098
000200 f5 3d 85 bf 22 33 e3 be 56 90 ac 3f df 18 11 c0
       -1.0409533 -0.4437495 1.3481548 -2.267143
000210 38 d2 9d bf 12 c0 bd be ff 2b a0 bf 33 c1 54 bf
       -1.2329779 -0.370606 -1.2513427 -0.831073
000220 ea fa 38 3f 21 6e 89 3e b4 1f c4 bf 17 4e af be
       0.72257864 0.26841834 -1.5322175 -0.34239265
000230 83 09 f6 3e 92 4b 16 be b4 08 5d 3f ab f7 8d 3f
       0.48054132 -0.14677265 0.86341405 1.1091207
000240 a3 fd 25 3f 75 04 4b 3f 3d ff 4e 3f 45 62 93 3f
       0.64840144 0.79303676 0.8085821 1.1514364
000250 40 7e 7a 3f ad 83 36 bf 0a ae 0c 40 5e fb 5f bf
       0.9784889 -0.7129467 2.1981225 -0.8749293
000260 e8 95 15 40 bb 8b 66 be 0f 3d 6e 3e 34 27 db bf
       2.3372746 -0.2251424 0.2326548 -1.7121339
000270 2c ce 42 3e 71 43 51 3e 38 b9 09 c0 48 aa 4d 3f
       0.19023961 0.20435883 -2.1519299 0.80337954
000280 fb c2 5e bf dc 5b 75 3f c5 2c 19 bf ff aa 38 3f
       -0.87016267 0.9584329 -0.5983394 0.7213592
000290 b2 32 f9 be f1 fd 20 bf 38 9b 68 3f 50 a3 57 bf
       -0.4867149 -0.62887484 0.90861845 -0.8423357
0002a0 67 30 9b 3f 99 b9 2c 3e b0 08 1c bf 51 85 2b 3f
       1.2124146 0.16867675 -0.60950756 0.670003
0002b0 35 b5 0d 3f 82 e8 32 40 49 7a ba 3f 28 a9 86 3f
       0.55354625 2.7954412 1.4568568 1.0520372
0002c0 04 a9 7d 3e dd 38 c6 3f 40 42 55 bf 5e 3e 56 bf
       0.24771506 1.5486103 -0.83304214 -0.83688915
0002d0 5b d2 bc bf 1c 2d b9 3d 24 57 a4 3e cb 28 a0 bf
       -1.4751695 0.09041807 0.32097733 -1.2512449
0002e0 cf 5b 28 bf 7e 0c ce be e3 5a 5a bf 09 ff 10 bf
       -0.6576509 -0.40243906 -0.8529493 -0.5663915
0002f0 b9 4e f8 be 40 a0 ca bf e1 0e 84 3f d8 a5 37 be
       -0.4849756 -1.5830154 1.0317041 -0.17934358
000300 1e 72 ab bf e6 d2 8c 3f ea 62 0b c0 20 50 99 bf
       -1.3394201 1.1001861 -2.1779122 -1.1977577
000310 52 fc b1 3f e7 b7 47 3f 81 17 21 be 0c 23 7c 3f
       1.3905127 0.7801499 -0.15731622 0.9849098
000320 70 63 fb be 86 e8 1c bf 1e 1a ea bf 29 04 1b bf
       -0.49099302 -0.612923 -1.828922 -0.6055322
000330 66 13 b4 3e b1 87 91 bf 19 68 80 3e 15 a4 dc 3e
       0.3517105 -1.1369535 0.2507942 0.43093935
000340 74 8c c3 bf 43 8a 38 bf 7b 29 76 be 33 1e e1 bf
       -1.5277238 -0.7208597 -0.24039261 -1.7587341
000350 be 4c 37 3f 93 d8 b8 bf cb 2c 89 bd 3e f0 b0 bf
       0.71601474 -1.4441093 -0.06697997 -1.3823316
000360 58 cb 84 3f 2d 72 c5 3f 92 98 1a 40 31 3d 62 bf
       1.0374556 1.5425469 2.4155622 -0.8837462
000370 8f a6 d0 bc 28 a1 4c bf bf 49 c7 bf 82 62 a4 bf
       -0.025470046 -0.79933405 -1.556938 -1.2842562
000380 f9 b9 14 3f 5d 35 73 3e 63 8f 04 bf d2 52 89 3f
       0.5809627 0.23750825 -0.5178129 1.07284
000390 1e 7f f8 3e d2 05 1e bf 34 ce 21 bf f8 9b e1 bf
       0.48534483 -0.6172763 -0.63205266 -1.7625723
0003a0 32 bf 16 3f 1d 04 e6 3e 43 2b 0a bd 19 88 96 bc
       0.5888549 0.44925013 -0.033732664 -0.018375443
0003b0 53 65 46 3e e1 65 9d bf 12 83 2e bf 2f 3c 02 bf
       0.1937459 -1.2296716 -0.6816875 -0.5087308
0003c0 fc 2f b9 bf 50 ad 36 3f d1 b2 03 c0 7d ba 1b bf
       -1.4467769 0.71358204 -2.057789 -0.60831434
0003d0 f3 20 ac 3f da bc 62 3f 12 2a 16 40 82 71 b4 bf
       1.3447555 0.88569415 2.3463178 -1.409714
0003e0 9c c1 cf 3e 48 fb c9 bf 7a 2d 7f be dd ac 0b 3e
       0.405774 -1.577981 -0.24919692 0.13640161
0003f0 e9 fc 01 c0 11 52 cf bf b8 fa 4d bf c0 d9 0f 3f
       -2.0310614 -1.619692 -0.8046069 0.56191635
